…
e_intervals=5, seperate_hidden=False, small_train=False, spc_exp_id='', task='prob', temperature=0.01, test_data_dir=None, test_split='test', trainval_split=0.9, un_directed=False, update_function='gru', use_aig=False, use_edge_attr=False, use_logic_diff=False, val_only=False, weight_decay=1e-10, wx_mlp=False, wx_update=False)
Training in single device:  cuda:0
==> Loading dataset from:  ../data/train
Size:  9757
Splitting the dataset into training and validation sets..
# training circuits:  8781
# validation circuits:  976
==> Creating model...
MLPGate(
  (aggr_and_strc): TFMLP(
    (attn_lin): Linear(in_features=128, out_features=1, bias=True)
    (msg_q): Linear(in_features=64, out_features=64, bias=True)
    (msg_k): Linear(in_features=64, out_features=64, bias=True)
    (msg_v): Linear(in_features=64, out_features=64, bias=True)
  )
  (aggr_and_func): TFMLP(
    (attn_lin): Linear(in_features=128, out_features=1, bias=True)
    (msg_q): Linear(in_features=128, out_features=64, bias=True)
    (msg_k): Linear(in_features=128, out_features=64, bias=True)
    (msg_v): Linear(in_features=128, out_features=64, bias=True)
  )
  (aggr_not_strc): TFMLP(
    (attn_lin): Linear(in_features=128, out_features=1, bias=True)
    (msg_q): Linear(in_features=64, out_features=64, bias=True)
    (msg_k): Linear(in_features=64, out_features=64, bias=True)
    (msg_v): Linear(in_features=64, out_features=64, bias=True)
  )
  (aggr_not_func): TFMLP(
    (attn_lin): Linear(in_features=128, out_features=1, bias=True)
    (msg_q): Linear(in_features=64, out_features=64, bias=True)
    (msg_k): Linear(in_features=64, out_features=64, bias=True)
    (msg_v): Linear(in_features=64, out_features=64, bias=True)
  )
  (update_and_strc): GRU(64, 64)
  (update_and_func): GRU(64, 64)
  (update_not_strc): GRU(64, 64)
  (update_not_func): GRU(64, 64)
  (readout_prob): MLP(
    (fc): Sequential(
      (0): Linear(in_features=64, out_features=32, bias=True)
      (1): BatchNorm1d(32, eps=1e-05, momentum=0.1, affine=True, track_running_stats=True)
      (2): ReLU(inplace=True)
      (3): Dropout(p=0.2, inplace=False)
      (4): Linear(in_features=32, out_features=32, bias=True)
      (5): BatchNorm1d(32, eps=1e-05, momentum=0.1, affine=True, track_running_stats=True)
      (6): ReLU(inplace=True)
      (7): Dropout(p=0.2, inplace=False)
      (8): Linear(in_features=32, out_features=1, bias=True)
    )
  )
  (readout_rc): MLP(
    (fc): Sequential(
      (0): Linear(in_features=128, out_features=32, bias=True)
      (1): BatchNorm1d(32, eps=1e-05, momentum=0.1, affine=True, track_running_stats=True)
      (2): Dropout(p=0.2, inplace=False)
      (3): Linear(in_features=32, out_features=32, bias=True)
      (4): BatchNorm1d(32, eps=1e-05, momentum=0.1, affine=True, track_running_stats=True)
      (5): Dropout(p=0.2, inplace=False)
      (6): Linear(in_features=32, out_features=1, bias=True)
      (7): Sigmoid()
    )
  )
  (hf_emd_int): Linear(in_features=1, out_features=64, bias=True)
)
==> Starting training...
[W pthreadpool-cpp.cc:90] Warning: Leaking Caffe2 thread-pool after fork. (function pthreadpool)
[W pthreadpool-cpp.cc:90] Warning: Leaking Caffe2 thread-pool after fork. (function pthreadpool)
[W pthreadpool-cpp.cc:90] Warning: Leaking Caffe2 thread-pool after fork. (function pthreadpool)
[W pthreadpool-cpp.cc:90] Warning: Leaking Caffe2 thread-pool after fork. (function pthreadpool)
…
e_intervals=5, seperate_hidden=False, small_train=False, spc_exp_id='', task='prob', temperature=0.01, test_data_dir=None, test_split='test', trainval_split=0.9, un_directed=False, update_function='gru', use_aig=False, use_edge_attr=False, use_logic_diff=False, val_only=False, weight_decay=1e-10, wx_mlp=False, wx_update=False)
Training in single device:  cuda:0
==> Loading dataset from:  ../data/train
Size:  9757
Splitting the dataset into training and validation sets..
# training circuits:  8781
# validation circuits:  976
==> Creating model...
MLPGate(
  (aggr_and_strc): TFMLP(
    (attn_lin): Linear(in_features=256, out_features=1, bias=True)
    (msg_q): Linear(in_features=128, out_features=128, bias=True)
    (msg_k): Linear(in_features=128, out_features=128, bias=True)
    (msg_v): Linear(in_features=128, out_features=128, bias=True)
  )
  (aggr_and_func): TFMLP(
    (attn_lin): Linear(in_features=256, out_features=1, bias=True)
    (msg_q): Linear(in_features=256, out_features=128, bias=True)
    (msg_k): Linear(in_features=256, out_features=128, bias=True)
    (msg_v): Linear(in_features=256, out_features=128, bias=True)
  )
  (aggr_not_strc): TFMLP(
    (attn_lin): Linear(in_features=256, out_features=1, bias=True)
    (msg_q): Linear(in_features=128, out_features=128, bias=True)
    (msg_k): Linear(in_features=128, out_features=128, bias=True)
    (msg_v): Linear(in_features=128, out_features=128, bias=True)
  )
  (aggr_not_func): TFMLP(
    (attn_lin): Linear(in_features=256, out_features=1, bias=True)
    (msg_q): Linear(in_features=128, out_features=128, bias=True)
    (msg_k): Linear(in_features=128, out_features=128, bias=True)
    (msg_v): Linear(in_features=128, out_features=128, bias=True)
  )
  (update_and_strc): GRU(128, 128)
  (update_and_func): GRU(128, 128)
  (update_not_strc): GRU(128, 128)
  (update_not_func): GRU(128, 128)
  (readout_prob): MLP(
    (fc): Sequential(
      (0): Linear(in_features=128, out_features=32, bias=True)
      (1): BatchNorm1d(32, eps=1e-05, momentum=0.1, affine=True, track_running_stats=True)
      (2): ReLU(inplace=True)
      (3): Dropout(p=0.2, inplace=False)
      (4): Linear(in_features=32, out_features=32, bias=True)
      (5): BatchNorm1d(32, eps=1e-05, momentum=0.1, affine=True, track_running_stats=True)
      (6): ReLU(inplace=True)
      (7): Dropout(p=0.2, inplace=False)
      (8): Linear(in_features=32, out_features=1, bias=True)
    )
  )
  (readout_rc): MLP(
    (fc): Sequential(
      (0): Linear(in_features=256, out_features=32, bias=True)
      (1): BatchNorm1d(32, eps=1e-05, momentum=0.1, affine=True, track_running_stats=True)
      (2): Dropout(p=0.2, inplace=False)
      (3): Linear(in_features=32, out_features=32, bias=True)
      (4): BatchNorm1d(32, eps=1e-05, momentum=0.1, affine=True, track_running_stats=True)
      (5): Dropout(p=0.2, inplace=False)
      (6): Linear(in_features=32, out_features=1, bias=True)
      (7): Sigmoid()
    )
  )
  (hf_emd_int): Linear(in_features=1, out_features=128, bias=True)
)
==> Starting training...
[W pthreadpool-cpp.cc:90] Warning: Leaking Caffe2 thread-pool after fork. (function pthreadpool)
[W pthreadpool-cpp.cc:90] Warning: Leaking Caffe2 thread-pool after fork. (function pthreadpool)
[W pthreadpool-cpp.cc:90] Warning: Leaking Caffe2 thread-pool after fork. (function pthreadpool)
[W pthreadpool-cpp.cc:90] Warning: Leaking Caffe2 thread-pool after fork. (function pthreadpool)
…
